…
gradient_steps:
    value: 1
learning_rate:
    value: 0.0005
learning_starts:
    value: 200
lr_schedule:
    value: FloatSchedule(ConstantSchedule(val=0.0005))
max_grad_norm:
    value: 10
n_envs:
    value: 1
n_steps:
    value: 1
num_timesteps:
    value: 0
observation_space:
    value: Box(-inf, inf, (10, 5), float32)
optimize_memory_usage:
    value: "False"
policy:
    value: |-
        DQNPolicy(
          (q_net): QNetwork(
            (features_extractor): FlattenExtractor(
              (flatten): Flatten(start_dim=1, end_dim=-1)
            )
            (q_net): Sequential(
              (0): Linear(in_features=50, out_features=256, bias=True)
              (1): ReLU()
              (2): Linear(in_features=256, out_features=256, bias=True)
              (3): ReLU()
              (4): Linear(in_features=256, out_features=5, bias=True)
            )
          )
          (q_net_target): QNetwork(
            (features_extractor): FlattenExtractor(
              (flatten): Flatten(start_dim=1, end_dim=-1)
            )
            (q_net): Sequential(
              (0): Linear(in_features=50, out_features=256, bias=True)
              (1): ReLU()
              (2): Linear(in_features=256, out_features=256, bias=True)
              (3): ReLU()
              (4): Linear(in_features=256, out_features=5, bias=True)
            )
          )
        )
policy_class:
    value: <class 'stable_baselines3.dqn.policies.DQNPolicy'>
policy_kwargs:
    value: '{''net_arch'': [256, 256]}'
q_net:
    value: |-
        QNetwork(
          (features_extractor): FlattenExtractor(
            (flatten): Flatten(start_dim=1, end_dim=-1)
          )
          (q_net): Sequential(
            (0): Linear(in_features=50, out_features=256, bias=True)
            (1): ReLU()
            (2): Linear(in_features=256, out_features=256, bias=True)
            (3): ReLU()
            (4): Linear(in_features=256, out_features=5, bias=True)
          )
        )
q_net_target:
    value: |-
        QNetwork(
          (features_extractor): FlattenExtractor(
            (flatten): Flatten(start_dim=1, end_dim=-1)
          )
          (q_net): Sequential(
            (0): Linear(in_features=50, out_features=256, bias=True)
            (1): ReLU()
            (2): Linear(in_features=256, out_features=256, bias=True)
            (3): ReLU()
            (4): Linear(in_features=256, out_features=5, bias=True)
          )
        )
replay_buffer:
    value: <stable_baselines3.common.buffers.ReplayBuffer object at 0x782cc333bc40>
replay_buffer_class:
    value: <class 'stable_baselines3.common.buffers.ReplayBuffer'>
replay_buffer_kwargs:
    value: '{}'
sde_sample_freq:
    value: -1
seed:
    value: None
start_time:
    value: 1764642141094500667
target_update_interval:
…
